models/saved/heloc_MLP.pt (torch, 5705 bytes, 10 tensors)

fc1.weight f4 [10, 22]
00000000: 0460 ffbd b721 52be cb96 b0be 874a a6be
00000010: 4bd5 c5be cd7e 6f3b 551c 9fbe f309 3bbd
00000020: 1a64 18be bcad 9bbe 4980 6ebe cfd3 8dbe
00000030: 5c7e a9be 7500 0a3d 2415 83be a8ea bdbd
00000040: 8b2a 8cbd 1ccd 2ebe f35e e23c fa61 95be
00000050: 4867 b1be 2460 47bd 2b70 2cbe 4a34 8ebe
00000060: 8108 dbbd dd0a b2be 95f0 7cbe 0e68 20be
00000070: dd86 9fbe 4014 43be f8e3 2b3c 3f1c 66be
00000080: 8d8f 50be 3923 d1bd 97e0 95be a75c 90be
00000090: 02ce 00be b3e8 f6bc 98ff 8bbe 8ffd dabc
000000a0: 1411 5fbe 9531 a9be e15f 1ebd 9eca 94be
000000b0: d853 9fbe 5e6e 243e 325d dcbe 02e4 1ebc
000000c0: de0f ce3e 63dc 243e c969 973d 88e6 ee3d
000000d0: 89b3 933d 9040 d03c b2c2 973e 4d49 693e
000000e0: d53b fe3d 19a5 0c3e 4691 6d3f 59a6 553f
000000f0: b62a c03e 2fd6 99bd d77b 173f 2a9e 2d3e
00000100: 2c0d ca3e 966d aebd 6eab 713e bd3f a2be
00000110: c38b 473f 8fb3 ac3e fe1a 34bf 44f3 febe
00000120: a076 b23e cbb9 1f3e 5aa1 ef3e 6f63 463e
00000130: b2ce 353e b3c2 87be 2ed9 c3bd d675 413e
00000140: 9ed1 a1bf 0063 4ebf ddca 4abf 190f f43d
00000150: 0efa 1ebe 3a9a cc3d c08e c5bd 6ae2 0bbe
00000160: 929c 95be 02ab 513e 5ddb 0dbf cceb a6be
00000170: 3c5e dd3e b814 e53e 1a28 023e 4816 f83d
00000180: fc59 0dbf 5662 f5bd 21eb d03c ca54 623e
00000190: 7bc0 3f3e 2a79 5fbe 18aa 783f 6074 8a3f
000001a0: 9dd8 373f c583 083e dbc5 853e 3033 eabd
000001b0: 10d1 063e cd95 cc3e 7f81 d5bd af4e 03be
000001c0: c1aa d43c a02d 283d b811 2ebe 5703 53be
000001d0: f455 98bc 2cb9 073e a7c4 72be 30ba cbbc
000001e0: 8262 c9bd 5614 f6bc d1fd aabc c3f3 18be
000001f0: 3b6c 28be 0b4c 133e 83f6 0c3d c57d 03be
00000200: 1ea0 2a3e b0a7 5b3c 520d 3cbe bfb5 2fbe
00000210: 2c7f 28be cabf bdbe 5e18 013d 2a88 67be
00000220: fc08 a8bd 3d75 23be 749a bcbe 6ad2 7cbe
00000230: 5438 50be 4ade ffbd 9414 13bd cf80 9abd
00000240: 16aa 02bd f518 9dbe dcac 16be 855b 173d
00000250: d6b9 8d3c 7fcb b5be 5a56 95be 6bad 55bd
00000260: dbe3 17bd e500 b9be 2436 59be 22b7 0cbd
00000270: be7b c0be 9661 3fbe b0c0 6b3e 254e 833e
00000280: 1fbd 27be 1eb0 54be 2fca b7bd b3c9 82be
00000290: fea0 c3bd 1afa e63e 2023 4f3e 84d8 9abe
000002a0: 417e 723f 5b3e 6c3f f1a7 013f d8d0 423d
000002b0: 60aa 703e 8552 543d f9a5 9f3b b6b2 b83e
000002c0: f642 3abd 4f27 09be 92cc bfbe 369e 9ebe
000002d0: 3ac7 44be c1c6 4abe 72d8 d1bc 6007 a0be
000002e0: 2e0a 8bbe c615 8fbd b43e b0bd 94d3 49be
000002f0: 7082 3ebe 97c7 c7be 1a6b 6ebe 3af7 93bd
00000300: 1db2 69bc 01d8 24be 5342 c3bd 5b9d a0be
00000310: 4f8c 27bb de16 9fbe 607f 08be b8e2 d53e
00000320: 5b7e 2fbf 4de8 e6be 11c1 213f d448 4d3e
00000330: bc1c 73be 222c d2bd a732 7dbe 5fc0 c8bd
00000340: e43e 0ebe dc71 aa3e c86d 9a3e 92a2 3fbe
00000350: 0d45 6f3f 7ff0 933f 5b23 183f be5f 933d
00000360: 28ae bd3e 2bcc 48be afb2 213e 0249 973e
-0.124694854 -0.20520674 -0.34490046 -0.32478735 -0.38639292 0.0036544085 -0.31076303 -0.045663785
-0.14881936 -0.30405986 -0.23291124 -0.2770066 -0.33104217 0.033691842 -0.25602067 -0.09273273
-0.06844052 -0.1707043 0.027633166 -0.29176313 -0.3464911 -0.04867567 -0.16839664 -0.27774268
-0.10694981 -0.34773913 -0.2470115 -0.15664694 -0.3115758 -0.19050694 0.010491364 -0.22471713
-0.2036726 -0.10211796 -0.2927291 -0.28195688 -0.12578586 -0.030140257 -0.2734344 -0.026732234
-0.21783859 -0.3304564 -0.038665656 -0.29060835 -0.31118655 0.16057727 -0.43039852 -0.009697916
0.4024648 0.16099696 0.07393224 0.11665064 0.07211978 0.02542141 0.29640728 0.22781868
0.12413756 0.13734855 0.92799795 0.8345695 0.37532586 -0.075115554 0.5917334 0.16954866
0.39463174 -0.085169956 0.23600551 -0.31689253 0.77947634 0.33730742 -0.70353687 -0.49794972
0.3485613 0.15598218 0.4680279 0.19373868 0.17754629 -0.2651573 -0.09562908 0.18892607
-1.2642095 -0.8061981 -0.79215795 0.11916942 -0.15525076 0.09990354 -0.09646368 -0.13660589
-0.29221016 0.2047539 -0.55412847 -0.32601774 0.43235958 0.4474237 0.1271061 0.12113625
-0.5521543 -0.11981647 0.025502743 0.22102657 0.18725769 -0.21823564 0.9713454 1.0816765
0.718149 0.13331516 0.26127514 -0.114355445 0.13165689 0.3995804 -0.1042509 -0.12822984
0.025960328 0.041059136 -0.16998947 -0.20606743 -0.018595673 0.13254231 -0.2370783 -0.024869055
-0.09833242 -0.030038994 -0.020872982 -0.14936738 -0.16447537 0.14384477 0.03441478 -0.12840946
0.16662642 0.013406679 -0.18364456 -0.17159174 -0.16454762 -0.37060386 0.03151738 -0.22610536
-0.08204839 -0.15962692 -0.36836588 -0.24689642 -0.20333987 -0.1249357 -0.035908297 -0.075440995
-0.031900488 -0.30683103 -0.14714378 0.036952514 0.017300528 -0.35506818 -0.29167444 -0.052167337
-0.037082534 -0.36133495 -0.2121206 -0.034354337 -0.37594408 -0.1868957 0.23022723 0.25645557
-0.16380738 -0.20770308 -0.0897411 -0.2554451 -0.09552191 0.45112687 0.20228243 -0.30243313
0.947239 0.92282647 0.50646883 0.04756245 0.23502493 0.05183651 0.0048720804 0.36073846
-0.045474015 -0.13393901 -0.37460762 -0.3098008 -0.19216624 -0.19802381 -0.025615904 -0.31255627
-0.27156204 -0.06986575 -0.0860571 -0.19709617 -0.18604445 -0.39019462 -0.23283044 -0.07224889
-0.014263657 -0.16098024 -0.09534135 -0.31370053 -0.0025565808 -0.31072134 -0.1332984 0.41774535
-0.6855218 -0.45099106 0.6318522 0.20047313 -0.2374143 -0.10262324 -0.24726354 -0.09802317
-0.13891178 0.33289993 0.3016188 -0.1871436 0.9346474 1.1557769 0.5942895 0.07195996
0.37046933 -0.19609134 0.15790819 0.29547888

fc1.bias f4 [10]
00000000: 5b7a 7ebe d84e 8cbd 88c7 fd3e 40af 08be
00000010: 3756 a73e 08f9 45be 1702 3dbe 8d16 aa3d
00000020: 8de6 92be 5af4 e83e
-0.24851362 -0.06850976 0.49566293 -0.13348103 0.32682964 -0.19333279 -0.18457828 0.083050825
-0.2869152 0.45498925

fc2.weight f4 [10, 10]
00000000: 2326 ebbe 12df b43e 43f5 773e a6b2 39bf
00000010: 3ef0 a13e 9413 df3d c5ce 42be f54a 933e
00000020: 7e6d aabe e9bb c43e 35e4 05be 1355 48be
00000030: 4c34 cdbd c30b 47bd 8cda 873d 613e 8e3e
00000040: 6201 6ebe 8bcc 9dbe 664b 2f3e eee9 e4bd
00000050: 56c9 2cbe d4f1 86bc 3c3f 8fbd 3bf4 8bbe
00000060: 72f7 003c 1a82 833e 5251 603e 9024 5cbe
00000070: 6977 913e 75a1 e83d 3767 913e cbf4 8ebd
00000080: 5937 ae3c 20b6 c4be 7e33 1e3f d4d8 693e
00000090: e6d5 4d3e 984e c33e 6860 07be 8dd6 223f
000000a0: 6fec 103d 94f3 5a3e 82fe 8bbe decd 4c3d
000000b0: 514d 97be f399 0abe ee9a 24be e280 0fbe
000000c0: 5565 853e 81e9 733d 9708 ddbd a1b4 b83e
000000d0: 6cfb 31bf 059e b03e 73ae bdbd c429 ab3d
000000e0: 92e5 50be 6f8d 6d3d 802d e7be d7f1 d9be
000000f0: e3a8 2e3e a1dc f83d ed4e 69be a5dc 173d
00000100: dc12 b2bd 91d6 9f3d 075f 95be d256 7ebc
00000110: 55cb 873e f2c1 d13d dfa5 be3d 264f 8cbd
00000120: 7255 ebbe 2ef3 a4be 7b14 99be 7e21 84be
00000130: 6d2a 273d 251e 30be 067e b73c 1c0a e7bd
00000140: 84f5 50bd e45b 68be 3600 1abd 0980 f3be
00000150: 8d6f fabe 6325 97be 4696 d13d 010d 74be
00000160: 16c0 443d e72e 71be 3292 04bc 03ca 01bd
00000170: 9419 66bd 912f c7be c8a2 463e d6cf 1abd
00000180: 2a65 843e 209a 8b3e f25d 5c3e 4e66 ac3e
-0.45927534 0.3532644 0.24214654 -0.7253822 0.31628603 0.10892406 -0.19024189 0.28768125
-0.3328666 0.38424614 -0.13075335 -0.19563703 -0.100197405 -0.0485952 0.066334814 0.27781966
-0.23242715 -0.30820116 0.17118606 -0.11177431 -0.16873679 -0.016472735 -0.06994483 -0.2733477
0.007871496 0.25685197 0.21906021 -0.21498322 0.28411415 0.113589205 0.2839906 -0.06980284
0.021266626 -0.384202 0.6179732 0.2283662 0.20101127 0.381459 -0.1322037 0.6360863
0.03538173 0.2138198 -0.27342612 0.050001018 -0.29551175 -0.1353529 -0.16074726 -0.14014009
0.26053873 0.05954886 -0.10792654 0.3607531 -0.69524264 0.3449556 -0.09261789 0.083575755
-0.20400074 0.05799621 -0.451519 -0.42567322 0.17056613 0.121514566 -0.22784014 0.037075657
-0.086950034 0.07804597 -0.29174063 -0.015523629 0.26522318 0.1024207 0.09308981 -0.06851034
-0.45963627 -0.3221678 -0.29898438 -0.25806803 0.040811945 -0.17198999 0.02239896 -0.11281225
-0.051015392 -0.22691303 -0.037597857 -0.4755862 -0.48913231 -0.2952071 0.102337405 -0.23833086
0.04803475 -0.23553048 -0.008091496 -0.031686794 -0.056176737 -0.38903478 0.19398034 -0.037795864
0.25858432 0.27266026 0.21520212 0.33671802

fc2.bias f4 [10]
00000000: 8718 d23e 6970 a8be b6b5 02be 323b 913e
00000010: 51f7 e7be a458 f53d 4845 e63b c185 843d
00000020: 8c7c 25be 5e0a abbd
0.41034338 -0.32898262 -0.1276463 0.28365475 -0.45305875 0.119797975 0.007027302 0.06470824
-0.16160792 -0.08351587

fc3.weight f4 [10, 10]
00000000: 3c31 383e abac 8f3e f912 02be a9d2 33be
00000010: 2403 ce3d ea39 28bd d323 99be bd02 e0bd
00000020: 39d3 78be 405c fd3d 6239 79be 0dfc c4bc
00000030: 8cfe 3bbd beee 09bd ca59 80be 62e0 983e
00000040: 987e 353e f4a6 ecbd 0253 e1bd 460c 3cbe
00000050: 5490 f63b 3152 fabd bf20 42be f6bc 0bbe
00000060: bf97 92be 1f9d 9abc 1cda b6bd ca14 92be
00000070: 2ce1 833e 1719 98be ba51 31be 4837 9e3e
00000080: 6030 263e 1e63 e1bd 2069 763e 2855 7dbe
00000090: 65d1 93bb e955 13be 26d5 e0bd 3dbf a1be
000000a0: 3c30 81be 5caa 853e 321e 4c3e efa8 af3d
000000b0: 1b4e ee3c ed22 8b3e cbf2 c93d f31e 34bd
000000c0: 7101 ce3d 1c60 bdbd 6303 59be 9a93 95bd
000000d0: a88f 3e3e cfff 2dbe 24ee aabe 6030 dabe
000000e0: 7b30 debd 9bdf a4be bb91 01be 8028 b2bd
000000f0: 3a8c a23e 0bfc a5be 4fd3 113e 2f62 883e
00000100: 9f33 6d3e 13a8 1d3f 1770 af3d 7455 84bd
00000110: 391a 6f3e 8122 d03e e16a d5be 6057 d0bc
00000120: 35bb 70be 9329 dabe d424 24be b4a6 3bbe
00000130: 0cdd c83d 7fbb e73d a3d2 13be 3f8d 8cbe
00000140: b1a4 ecbe 4ff7 eebd 17b5 683e df64 91be
00000150: 26d9 b13d a2f0 a8bd a778 50bd 2d4c b83d
00000160: 793d 42bd 7779 82be 4048 293f a70b d4be
00000170: dab7 3fbe 37c1 293f 3ea6 c33e f5e9 433f
00000180: 02af 323e 6a54 bb3e 2dad 793e c0f5 473d
0.17987531 0.28061423 -0.1270255 -0.17560829 0.10059193 -0.041070856 -0.29910144 -0.10938022
-0.24299325 0.12371111 -0.24338296 -0.024045968 -0.04589705 -0.033674948 -0.25068504 0.2985869
0.17724073 -0.11555281 -0.110021606 -0.18364057 0.0075245295 -0.12222708 -0.18957804 -0.13646302
-0.28631398 -0.01887375 -0.0892832 -0.28531486 0.2575773 -0.29706642 -0.17316332 0.3090155
0.16229391 -0.11005233 0.2406354 -0.24739516 -0.0045110458 -0.14388241 -0.10978155 -0.31591216
-0.25232112 0.26106536 0.19933394 0.085771434 0.029089978 0.27175084 0.09860762 -0.043974828
0.10058869 -0.09246847 -0.21192698 -0.073035434 0.18609488 -0.16992114 -0.33384812 -0.42615032
-0.10849091 -0.32201847 -0.12653248 -0.08699131 0.3174761 -0.32418856 0.14240764 0.26637408
0.23164223 0.61584586 0.08566301 -0.064616114 0.23349847 0.40651324 -0.41683105 -0.025432289
-0.23508914 -0.42609844 -0.16029674 -0.18325311 0.09807786 0.11315059 -0.1443582 -0.27451512
-0.462194 -0.11668264 0.2272533 -0.2839727 0.08683996 -0.08249022 -0.050896313 0.089989044
-0.047421906 -0.25483295 0.6612587 -0.4141514 -0.18722478 0.6631045 0.3821277 0.76528865
0.17449573 0.3658784 0.24382468 0.04881835

fc3.bias f4 [10]
00000000: 38b4 6ebe 44f9 7bbe ed75 09be eb10 41be
00000010: 4557 89be 96bc cd3e 4a7f be3d 08a0 7a3e
00000020: f291 0fbe c8d7 e73c
-0.23310935 -0.24606806 -0.13423891 -0.1885411 -0.26824394 0.40182942 0.09301622 0.2447511
-0.14020517 0.028301135

fc4.weight f4 [10, 10]
00000000: 04f1 96be d772 563d 4825 92be 028b b5bd
00000010: 2fa3 34be fb0a 093f f44b 3fbe 7cbf d83e
00000020: 42ac d93e 071f 84be 7450 68be 5d5e 563e
00000030: ff32 72be 401c 8bbe 3bb9 ae3c 5283 3f3d
00000040: 3eed 6abd 35c7 883d cc83 4c3e bbe1 e9bd
00000050: 014a 853d ec3b 9a3d fa61 afbd 4b81 18be
00000060: 1810 903e 2130 893e 7667 e7be 8ccf 263e
00000070: 81d1 883d b822 0f3e ff54 873e b8a2 463e
00000080: 9245 683e d3a1 1d3c badf cabd e96b cebe
00000090: c70d 233e 8933 5bbd 152e ccbe 2132 053f
000000a0: 50e1 9dbe c7a5 893e f13f 0bbe debd 503e
000000b0: 7ee9 8d3e eeb2 853d 6445 debe 9356 dbbe
000000c0: bbee 243b 3be0 ce3c d97b 8bbe 295c 61be
000000d0: c6f8 9ebc 56eb 81be 8e00 0ebd 5b06 c33e
000000e0: cdcc 91bd 5918 cc3e 45a7 f2bd a1d8 34bf
000000f0: 9bb8 823d 8097 9c3e 297f 073e 78f6 9f3c
00000100: 468d 073e 5040 cdbe 6d4e 003f 15a8 5bbe
00000110: 81b1 813e 0b94 053f b41b fd3c 9945 9f3d
00000120: 4b39 473d d813 663e 0aa7 723e 9d87 463d
00000130: add8 63be db94 a3be 1dcc 943e 1425 34bc
00000140: 4d02 17be b3a0 913e f6b5 933e 219d 453e
00000150: c1b5 16be 6836 8a3e dbd4 d0bc 66d4 663c
00000160: cc2d b53d 69bb bd3d eefd 873e d459 113e
00000170: 7bbe 283e f269 6b3e 9ba3 24be bfd3 b1bc
00000180: 342d ec3d 7923 29be aebe 5b3d e319 e3be
-0.29480755 0.052355614 -0.28544068 -0.08864404 -0.17640375 0.5353238 -0.18681318 0.4233359
0.42514235 -0.25804922 -0.2268694 0.20934434 -0.23652266 -0.2716999 0.02132856 0.046756096
-0.057355158 0.06678621 0.19972152 -0.11420008 0.06508256 0.075309604 -0.085636094 -0.14893071
0.2813728 0.26794532 -0.45196122 0.1629011 0.06680585 0.13978088 0.26432034 0.1939801
0.22682789 0.009621101 -0.09905954 -0.40316704 0.15923224 -0.053515945 -0.39878908 0.52029616
-0.30835962 0.2688429 -0.1359861 0.20384929 0.27717203 0.06528269 -0.43412316 -0.42839488
0.0025166709 0.025253406 -0.27242926 -0.22007813 -0.019405734 -0.2537486 -0.034668498 0.38090786
-0.07119141 0.39862326 -0.118483104 -0.7064305 0.06382867 0.30584335 0.13232102 0.019526705
0.13237485 -0.4008813 0.5011967 -0.21450837 0.25330737 0.5217902 0.030896999 0.077769466
0.048638623 0.22468507 0.23696533 0.048469175 -0.22250624 -0.31949505 0.29061976 -0.010995168
-0.14746971 0.28442916 0.28849763 0.19298221 -0.14717771 0.26994634 -0.025492122 0.014088726
0.08846626 0.09264261 0.2656092 0.14194423 0.16478913 0.22989634 -0.16078036 -0.021707414
0.11532059 -0.16517438 0.053648643 -0.44355687

fc4.bias f4 [10]
00000000: 9af9 e43e 8908 d5be 9a84 8fbe 83b6 913e
00000010: cfa8 adbd 6c81 e33e 593d 853d 9a74 2bbe
00000020: 7839 653d 17ca 4dbe
0.4472168 -0.41608074 -0.28030854 0.28459558 -0.08479463 0.4443468 0.06505842 -0.16743699
0.05596301 -0.20096622

fc5.weight f4 [2, 10]
00000000: b435 13bf cfe7 e33c 225c 72be 0d2f 1b3d
00000010: c0cb c73e a6ca d9be 9acd bc3e be94 0d3e
00000020: 86a8 373e d360 c33c e07e 5d3e d401 09be
00000030: 71b1 e8bc df9c 07bf 4316 c33d 54ec 203f
00000040: 51e0 efbe 31ed 803e 0bea 943c 9d4e 7e3e
-0.5750382 0.027820496 -0.23667958 0.037886668 0.39022636 -0.4253742 0.36875612 0.13826272
0.1793538 0.02384988 0.2163043 -0.13379604 -0.028404923 -0.5297374 0.095257305 0.6286061
-0.46850827 0.25180963 0.018178007 0.24834676

fc5.bias f4 [2]
00000000: 9071 acbe be09 d73d
-0.3368039 0.10499905
