models/saved/UCI_MLP.pt (torch, 5769 bytes, 10 tensors)

fc1.weight f4 [10, 23]
0	0x3e176d4f	0.14787792
1	0x3ddebaf9	0.10875506
2	0x3d9d7389	0.07688052
3	0x3d54fb8b	0.051997703
4	0xbd1241f6	-0.035707437
5	0xbf6b2f37	-0.9186892
6	0x3e38017b	0.17969315
7	0x3dd5dd52	0.10442604
8	0x3d7c8c6d	0.061657358
9	0xbdffb443	-0.12485554
10	0xb94d8444	-0.00019599596
11	0x3e7da363	0.24769358
12	0x3d11860d	0.03552823
13	0xbe026510	-0.12733865
14	0x3d0daede	0.034590594
15	0xbe0d6938	-0.13809669
16	0x3d440763	0.047858607
17	0x3f90a31e	1.129978
18	0x3fb8e8b9	1.4446021
19	0x3f857c94	1.0428643
20	0x3f2f0b89	0.68376976
21	0x3ed5a977	0.41730854
22	0x3f03764b	0.51352376
23	0x3d9a2f14	0.07528511
24	0xbe214d9c	-0.15752262
25	0x3e8cabe1	0.27474883
26	0xbde8153f	-0.11332177
27	0x3e199ee0	0.15002012
28	0xbece50c0	-0.40295982
29	0xbc9b4fea	-0.018959004
30	0xbe461284	-0.19343
31	0x3e0c22af	0.13685106
32	0xbe81a80a	-0.25323516
33	0xbce86dfc	-0.028372757
34	0xbe8ece86	-0.2789194
35	0xbd865346	-0.06558852
36	0xbc142a26	-0.009043252
37	0xbead2343	-0.33815965
38	0x3d8bc0bd	0.06823871
39	0x3c9cdffe	0.019149777
40	0x3f540e41	0.8283425
41	0x3f59b171	0.8503638
42	0x3f80a35c	1.0049853
43	0x3f8dff36	1.1093509
44	0x3e45268c	0.19252986
45	0x3e6ddc1d	0.23228498
46	0xbe9b4206	-0.3032381
47	0x3c54ecf1	0.012995944
48	0x3d96d302	0.07364465
49	0xbdefbb73	-0.11705675
50	0xbe51f38c	-0.20503062
51	0x3f6d4ad5	0.9269231
52	0x3e2750fd	0.16339488
53	0x3c8e38e8	0.01736112
54	0x3e32086c	0.17386025
55	0x3b20073d	0.0024418377
56	0x3df763c7	0.12079578
57	0xbe162f03	-0.14666371
58	0xbd548556	-0.05188497
59	0x3da4a12c	0.080385536
60	0xbe445b32	-0.19175413
61	0x3d7fac91	0.06242043
62	0xbba3d5c4	-0.004999848
63	0xbedef0ed	-0.43543187
64	0xbf979589	-1.184251
65	0xbf638dad	-0.88888055
66	0x3d87714c	0.066134065
67	0xbf473669	-0.778174
68	0xbf12455d	-0.5713709
69	0x3e7c6f2f	0.24651788
70	0x3d3f577f	0.046714302
71	0x3cec1dbb	0.02882277
72	0x3d6a9b9b	0.057277303
73	0xbdf21500	-0.11820412
74	0xbf55ad2f	-0.8346738
75	0xbe28aef8	-0.16472995
76	0xbe5f1738	-0.21786201
77	0xbe3066a1	-0.1722665
78	0x3dd47c82	0.103753105
79	0x3d26e59e	0.040746324
80	0xbce02698	-0.027362153
81	0xbdba8e7c	-0.09109208
82	0x3df6df71	0.12054337
83	0x3d0f5452	0.034992523
84	0x3cabd5b2	0.020975921
85	0x3e879561	0.26481155
86	0x3f97f993	1.1873039
87	0x3fa0e15c	1.2568774
88	0x3f8451ce	1.0337465
89	0x3f51b35a	0.81914294
90	0x3f160b0e	0.5861062
91	0x3e99dee9	0.3005288
92	0x3d88586b	0.066574894
93	0xbda35490	-0.079751134
94	0x3dd2428d	0.102666
95	0x3e15d851	0.146333
96	0x3aa6b55b	0.0012718843
97	0xbf418a7a	-0.75601923
98	0x3ea8a6c4	0.32939732
99	0x3de32d70	0.11092651
100	0x3d3b5b60	0.04574144
101	0xbd87c6c5	-0.06629709
102	0x3e676469	0.22596897
103	0xbe13870e	-0.14406988
104	0xbc393ab9	-0.0113055045
105	0x3d511820	0.051048398
106	0x3ddd67c3	0.108108066
107	0xbec6f933	-0.38862
108	0x3e502ae5	0.20328863
109	0x3faee226	1.3662765
110	0x3f9a245b	1.2042345
111	0x3f9a6142	1.2060931
112	0x3f3047cb	0.6885955
113	0x3ebeaaf4	0.37239802
114	0x3e8be5a5	0.27323642
115	0xbe5b14c0	-0.21394634
116	0xbb198dcf	-0.0023430472
117	0xbe0652cd	-0.13117523
118	0xbeb8add9	-0.36070135
119	0xbe08856b	-0.13332145
120	0xbe99d078	-0.30041862
121	0xbe97c1c8	-0.2964003
122	0xbe06aece	-0.1315262
123	0xbe20b718	-0.15694845
124	0xbe871045	-0.263796
125	0xbe97dfa8	-0.29662824
126	0x3c326486	0.0108882245
127	0xbe8a9a16	-0.27070683
128	0xbd837ff5	-0.0642089
129	0xbea8a790	-0.3294034
130	0xbd927bf5	-0.07152549
131	0xbd7aafb0	-0.061202705
132	0xbe813170	-0.2523303
133	0xbd6ceebe	-0.05784487
134	0xbea62195	-0.32447496
135	0xbe58b792	-0.21163777
136	0xbd146d14	-0.036236838
137	0xbc83bca0	-0.016081154
138	0x3e6add11	0.22935893
139	0xbe80f38b	-0.2518581
140	0x3b8f2b40	0.0043691695
141	0xbeb64679	-0.3560064
142	0xbe99c215	-0.30030885
143	0xbe7f03f7	-0.24903856
144	0xbd556a64	-0.052103415
145	0xbd87a3a4	-0.06623009
146	0xbe8097de	-0.25115865
147	0xbda438cc	-0.08018646
148	0xbdf9b3a0	-0.12192464
149	0xbe8c8b15	-0.2744986
150	0xbe0612d5	-0.13093121
151	0xbcc293e1	-0.023752155
152	0xbe87ca7c	-0.2652167
153	0xbec09402	-0.3761292
154	0xbd16d826	-0.03682723
155	0x3ea8d5bd	0.3297557
156	0xbc3b8fc2	-0.011447849
157	0xbc898681	-0.01678777
158	0x3d11658a	0.035497226
159	0x3d413f8f	0.047179755
160	0x3d46307e	0.04838609
161	0x3d84e73c	0.06489417
162	0x3e1aed6e	0.15129635
163	0x3e00bd32	0.12572172
164	0xbcd02bbe	-0.025411483
165	0xbdb26794	-0.08711162
166	0xbf5a5748	-0.8528943
167	0xbdcd14db	-0.100137435
168	0xbe774f33	-0.24151306
169	0xbd4f2ec5	-0.050581712
170	0xbd80cb30	-0.06288755
171	0x3dfb82c7	0.12280803
172	0x3e7ee9b3	0.24893837
173	0xbb977299	-0.0046218154
174	0x3e03ca06	0.12870035
175	0x3e38c90c	0.18045443
176	0xbe278e95	-0.16362984
177	0x3e88c86a	0.26715404
178	0x3f8e071f	1.1095923
179	0x3f98cd59	1.1937667
180	0x3f836d55	1.026774
181	0x3f4622a3	0.773966
182	0x3e93de2d	0.28880444
183	0x3ef0e315	0.4704825
184	0xbd2ac506	-0.041691802
185	0x3db2fdd4	0.0873982
186	0xbe3c7fb7	-0.18408094
187	0x3d3ef941	0.046624426
188	0xbca15d2d	-0.01969775
189	0x3f564e79	0.8371349
190	0x3d1ec9b5	0.03876658
191	0x3ef0339c	0.46914375
192	0x3e6efcef	0.23338674
193	0x3f092a6b	0.5358035
194	0x3e8508f0	0.2598338
195	0xbc22511d	-0.009907034
196	0x3ee452c9	0.4459441
197	0x3e7ee14f	0.24890636
198	0x3c1106d6	0.0088517275
199	0x3eddafe1	0.43298247
200	0x3e5bf0f6	0.21478638
201	0xbf2ace7a	-0.6672131
202	0xbf8c2fbd	-1.0952069
203	0xbf135b11	-0.5756083
204	0xbd1652c3	-0.03670002
205	0xbd22c6a1	-0.03974021
206	0x3e15c22e	0.14624855
207	0x3ec0134d	0.37514725
208	0xbe418886	-0.18899736
209	0xbe82cb58	-0.25545764
210	0xbd81c573	-0.063364886
211	0xbe54c47c	-0.20778078
212	0xbedbf7b6	-0.42962426
213	0xbe5cf70b	-0.21578614
214	0xbe88e879	-0.26739863
215	0xbe07cf46	-0.13262662
216	0xbb920327	-0.004455942
217	0xbe479833	-0.19491653
218	0xbe66eb2a	-0.22550645
219	0xbe91a5b3	-0.2844673
220	0xbe0206d5	-0.12697919
221	0xbe025151	-0.12726332
222	0xbe30bde5	-0.17259939
223	0xbdf5e9ca	-0.12007482
224	0x3edf66df	0.43633172
225	0x3f5f2e9d	0.871805
226	0x3f38085d	0.7188776
227	0x3f403cac	0.7509258
228	0x3eb5b20a	0.35487396
229	0x3efe3cc5	0.49655738

fc1.bias f4 [10]
0	0x3ea1c6a8	0.31596875
1	0xbe513856	-0.20431647
2	0xbd9ff983	-0.078112625
3	0x3e9c31e1	0.30506805
4	0x3e5fe2de	0.21863887
5	0xbe9857ca	-0.29754478
6	0xbe342311	-0.17591502
7	0x3eabe8a7	0.33575937
8	0xbcfc273c	-0.030780427
9	0xbe36fb43	-0.17869286

fc2.weight f4 [10, 10]
0	0xbf105a8d	-0.5638817
1	0xbe2bad81	-0.16765405
2	0x3e13f0ec	0.14447373
3	0xbf1c5f9d	-0.61083394
4	0xbe8d8d57	-0.27646896
5	0x3d979984	0.07402328
6	0x3ebc7a4f	0.36812064
7	0xbd9f4570	-0.07776916
8	0x3f1fbe99	0.62400204
9	0xbf0b5aa7	-0.544352
10	0x3f037a5a	0.5135857
11	0x3e1ad054	0.15118533
12	0xbebf11b0	-0.37318182
13	0x3ecab21c	0.39589012
14	0x3e596992	0.21231678
15	0x3d411787	0.047141578
16	0xbe05c051	-0.13061644
17	0x3e19cf40	0.15020466
18	0xbe41e13e	-0.1893358
19	0xbea7d4e0	-0.32779598
20	0x3c8d4b94	0.017247953
21	0xbd9f7476	-0.07785885
22	0x3d3d5bcd	0.046230126
23	0xbebce1ce	-0.36891025
24	0xbdaa1f4d	-0.083067514
25	0xbe7bc93d	-0.24588485
26	0x3ecdd934	0.40204775
27	0xbe431dbc	-0.19054312
28	0xbe9564d8	-0.291785
29	0xbec1ba9c	-0.37837684
30	0xbd0d6b17	-0.034525957
31	0xbe6f1d79	-0.23351087
32	0xbe81a115	-0.25318208
33	0xbed3e44a	-0.41385108
34	0xbec02c56	-0.37533826
35	0x3ebf16f3	0.37322196
36	0xbe8816c0	-0.26579857
37	0x3c96b48b	0.018396636
38	0xbe4381b3	-0.19092445
39	0x3d94b212	0.07260527
40	0xbeb30ba0	-0.34969807
41	0xbe605749	-0.21908297
42	0xbe4bb39a	-0.19892731
43	0xba37e7ff	-0.0007015466
44	0xbec0313e	-0.3753757
45	0xbe8349a0	-0.2564211
46	0xbe9d102a	-0.30676395
47	0xbea11382	-0.31460196
48	0x3f08697b	0.5328595
49	0xbe1189f3	-0.1421278
50	0x3e8a1131	0.2696624
51	0x3d840b54	0.06447473
52	0xbefacb6e	-0.4898333
53	0x3ee4deac	0.44701135
54	0x3eb548eb	0.35407194
55	0xbdf9375e	-0.121687636
56	0x3da2b757	0.079451256
57	0x3e9e4502	0.30912024
58	0xbeb8a311	-0.3606191
59	0xbdf2a59e	-0.11847995
60	0x3e90ebf7	0.28305027
61	0xbe4c7969	-0.1996819
62	0x3ccdd73f	0.025127051
63	0xbe41d519	-0.18928947
64	0xbe38e4d5	-0.18056042
65	0xbe1e096b	-0.1543328
66	0xbe580fc4	-0.21099764
67	0xbdd21e11	-0.10259641
68	0xbe428748	-0.18996918
69	0x3e9feef9	0.3123701
70	0x3e854c30	0.2603469
71	0x3df94ef4	0.12173262
72	0xbe6d8ca2	-0.23198178
73	0x3b91db75	0.00445121
74	0x3ef341e2	0.47511202
75	0x3eb93b64	0.36178124
76	0xbe30ba10	-0.17258477
77	0x3ed13339	0.40859392
78	0x3ddf4a51	0.109028466
79	0x3d9d1bff	0.076713555
80	0x3f0791ee	0.52957046
81	0xbe6f85ed	-0.23390932
82	0xbec4b3a5	-0.38418308
83	0x3ed54b5b	0.41659054
84	0x3f08309e	0.53199184
85	0xbdb4b8ee	-0.08824335
86	0x3dc34604	0.09534839
87	0x3db3af8e	0.08773719
88	0x3e95d485	0.29263702
89	0x3e25c98f	0.1619017
90	0xbde82b88	-0.11336428
91	0xbe02e5db	-0.12782995
92	0x3da2d77d	0.079512574
93	0xbf006ab0	-0.5016279
94	0xbee6753f	-0.45011327
95	0x3ecf04b4	0.40433276
96	0x3eec5c43	0.4616414
97	0xbea87c68	-0.32907414
98	0x3ef1c44a	0.4722007
99	0xbd829ec9	-0.06377942

fc2.bias f4 [10]
0	0xbd5ef510	-0.05443293
1	0x3eb7de8f	0.35911986
2	0xbeb3839e	-0.35061353
3	0xbe9834e8	-0.29727864
4	0xbdcdccc8	-0.100488245
5	0x3e62d1dd	0.22150369
6	0xbdda1955	-0.10649363
7	0x3d5c2805	0.053749103
8	0x3df4899a	0.11940308
9	0x3d18cdf0	0.037305772

fc3.weight f4 [10, 10]
0	0xbf2cfed9	-0.67576367
1	0x3ec4aae0	0.38411617
2	0xbe035d8e	-0.12828657
3	0x3c82ec46	0.015981805
4	0xbd943627	-0.07236891
5	0x3ece5f7d	0.40307227
6	0x3e399ac1	0.1812544
7	0x3e8ffeaa	0.2812398
8	0x3ececc32	0.40390164
9	0xbf033f4b	-0.5126845
10	0x3db07580	0.08616161
11	0xbe01acb3	-0.12663536
12	0xbd903b79	-0.070425935
13	0x3e2cf92d	0.16891928
14	0xbe6cedf0	-0.23137641
15	0xbe9270cd	-0.28601685
16	0xbbf8f52d	-0.0075975866
17	0x3dc21024	0.09475735
18	0xbead5ce8	-0.33859944
19	0xbeb089ea	-0.3448022
20	0xbe19a288	-0.15003407
21	0x3dc343cf	0.09534418
22	0xbe7a8b41	-0.24467184
23	0x3e601e40	0.2188654
24	0xba4d2297	-0.00078252837
25	0xbd5c76c0	-0.053824186
26	0x3e843bbd	0.25826827
27	0xbeb9c77c	-0.36285007
28	0x3e41183e	0.18856904
29	0xbdb9036b	-0.09033855
30	0xbf539ef1	-0.826644
31	0x3f24bbc3	0.64349
32	0xbd2202a7	-0.03955331
33	0x3e10794f	0.14108776
34	0xbf374d26	-0.71602094
35	0x3eed31db	0.463271
36	0x3e91d446	0.28482264
37	0x3eee83f0	0.46585035
38	0x3f21b2ba	0.6316334
39	0xbeefd336	-0.4684083
40	0xbe369d80	-0.17833519
41	0x3df764ac	0.120797485
42	0xbe4c2a37	-0.19937979
43	0x3d4ab124	0.04948534
44	0xbe9ac50e	-0.30228466
45	0x3c37a7a3	0.011209401
46	0x3d0a2ade	0.033732288
47	0xbda91f05	-0.0825787
48	0xbd9c7934	-0.07640305
49	0x3e783646	0.24239454
50	0xbe0cbb56	-0.13743338
51	0x3dac5af7	0.08415788
52	0xbcf70684	-0.030154474
53	0xbde97e5c	-0.11401054
54	0xbd7aff8b	-0.06127886
55	0xbe9fa6eb	-0.31182036
56	0xbe1d0657	-0.1533445
57	0xb932ab2f	-0.00017039174
58	0xbdbd00e2	-0.09228684
59	0xbd4dc0fe	-0.05023288
60	0xbea8860d	-0.32914773
61	0xbe40b65c	-0.18819565
62	0x3dfcecaa	0.123498276
63	0x3ce26cb5	0.027639726
64	0x3df07660	0.11741328
65	0xbed3a028	-0.41333127
66	0xbd4af7c7	-0.049552705
67	0x3df27102	0.11837961
68	0xbce86a25	-0.028370926
69	0xbe15526f	-0.14582227
70	0x3e611049	0.21978869
71	0x3d02fc70	0.031979024
72	0xbe2fab16	-0.17155108
73	0xbe8f10a6	-0.2794239
74	0xbe7abe8a	-0.24486747
75	0x3dd8a93e	0.105791554
76	0xbe4ab49a	-0.19795457
77	0x3d75bc0f	0.0599938
78	0xbe5601eb	-0.20899169
79	0x3e18b99c	0.14914554
80	0xbe4b388b	-0.19845788
81	0xbe776b65	-0.24162062
82	0xbbb2147f	-0.005434572
83	0xbe973d49	-0.29538944
84	0xbdd65589	-0.10465533
85	0x3cdf7e64	0.027281947
86	0xbe3a3901	-0.18185808
87	0x3e39d529	0.1814772
88	0x3e721cbf	0.23643778
89	0x3dac15a0	0.08402562
90	0xbe5d9f8d	-0.21642895
91	0x3cdb5afc	0.026776783
92	0xbee7d8da	-0.45282632
93	0xbe5fe337	-0.2186402
94	0x3ea1382c	0.31488168
95	0xbe95bfac	-0.29247797
96	0x3dc98431	0.09839667
97	0x3e87da38	0.26533675
98	0x3eeba550	0.4602456
99	0x3db2d648	0.08732277

fc3.bias f4 [10]
0	0x3e6a1381	0.22859003
1	0xbe1b8f8f	-0.15191482
2	0x3ccb1945	0.024792323
3	0x3e24dfe2	0.1610103
4	0xbdf2533b	-0.11832281
5	0xbe551531	-0.20808865
6	0xbe85fef4	-0.26171076
7	0xbe8a3278	-0.2699163
8	0x3ec4e5e7	0.38456652
9	0x3eb0995b	0.34492

fc4.weight f4 [10, 10]
0	0xbe40fae7	-0.18845712
1	0x38f420ba	0.000116409225
2	0x3dd541f5	0.10412971
3	0xbeadd866	-0.3395416
4	0x3e73fb31	0.2382629
5	0xbe9eb769	-0.30999306
6	0x3eb03cf2	0.34421498
7	0xbe8b7d2c	-0.27243936
8	0xbe1ad77e	-0.15121266
9	0x3e5e3db2	0.21703222
10	0x3e31bb44	0.17356592
11	0xbc3acc47	-0.011401243
12	0xbe868509	-0.26273373
13	0xbdda9f49	-0.106749125
14	0x3e63a98a	0.22232643
15	0xbe6eb998	-0.23312986
16	0x3d42fb54	0.047602966
17	0x3e9051a1	0.28187278
18	0xbe56a66b	-0.20961921
19	0xbeb010aa	-0.34387714
20	0x3eada301	0.33913425
21	0x3e549477	0.2075976
22	0xbd7e7c07	-0.06213
23	0x3e5b7b39	0.21433724
24	0x3e10fb51	0.1415837
25	0xbc908275	-0.017640332
26	0x3e28997d	0.16464801
27	0x3b6e51d3	0.003636469
28	0xbe07d4f8	-0.13264835
29	0xbe460d9e	-0.19341132
30	0xbddf59d5	-0.10905806
31	0xbe706cf4	-0.23479062
32	0x3b73a380	0.003717631
33	0xbd8aef5d	-0.06783936
34	0x3cd139f2	0.025540326
35	0xbe940447	-0.28909513
36	0x3e8193ec	0.25308168
37	0xbc7e447b	-0.015519257
38	0x3e362276	0.17786583
39	0xbd99f0c7	-0.07516628
40	0x3e798d8f	0.24370407
41	0xbe430542	-0.19044974
42	0xbd21a31e	-0.0394622
43	0xbe7dda4c	-0.24790305
44	0x3de2d978	0.11076635
45	0x3e87b891	0.26508
46	0x3db7668e	0.08955108
47	0x3e88db1f	0.26729676
48	0xbe529e90	-0.205683
49	0xbd2a1457	-0.041523304
50	0xbe8b42ef	-0.27199504
51	0x3dd668c3	0.104692005
52	0xbd95cf23	-0.07314899
53	0xbeb5dd5d	-0.3552045
54	0x3e73c614	0.2380603
55	0xbdb023a6	-0.086005494
56	0xbe26b748	-0.16280854
57	0x3e12b82c	0.14328068
58	0x3e5de39b	0.21668856
59	0x3d2e7762	0.04259432
60	0xbf104e41	-0.56369406
61	0x3d45f841	0.048332456
62	0x3bd677eb	0.006545057
63	0xbda22aa9	-0.07918293
64	0xbe658d42	-0.22417167
65	0x3d3f407a	0.04669235
66	0x3e39b108	0.18133938
67	0xbe635eeb	-0.22204177
68	0x3d45570d	0.04817872
69	0x3e692e2d	0.22771521
70	0x3f02a286	0.5102924
71	0x3e308885	0.17239578
72	0x3dc30cd9	0.09523935
73	0x3f1b3efe	0.60642993
74	0x3d8f38c5	0.0699325
75	0xbe767478	-0.24067867
76	0x3d199edf	0.037505027
77	0x3e4df00f	0.20111106
78	0x3ec01396	0.37514943
79	0x3eb82792	0.3596769
80	0x3cee6bf3	0.029104209
81	0xbdc01c9d	-0.093804576
82	0xbeaf2d93	-0.34214458
83	0xbdce20a2	-0.10064818
84	0xbe476098	-0.19470441
85	0x3e704791	0.234648
86	0x3dcedb6c	0.10100445
87	0xbdc4cc52	-0.096092835
88	0xbea8f892	-0.33002144
89	0xbed876d2	-0.42278153
90	0xbde12703	-0.10993769
91	0x3c3816f3	0.01123594
92	0x3c92ad5c	0.01790493
93	0xbd80e1c8	-0.06293064
94	0x3e42abef	0.190109
95	0xbe9ad253	-0.3023859
96	0x3c7ca8e9	0.015421131
97	0xbe57e360	-0.2108283
98	0xbc7c15e8	-0.015386082
99	0x3d1d87bf	0.038459536

fc4.bias f4 [10]
0	0x3eed6e34	0.4637314
1	0xbe37c2dd	-0.17945428
2	0xbe38e9fc	-0.18058008
3	0xbdccec87	-0.100060515
4	0xbe80a770	-0.25127745
5	0x3f180f95	0.59398776
6	0x3ed76345	0.42067924
7	0x3c940eda	0.018073488
8	0xbe4a0571	-0.19728638
9	0xbebe11bb	-0.37122902

fc5.weight f4 [2, 10]
0	0xbf087d09	-0.5331579
1	0xbd2c9535	-0.042134482
2	0xbe27b7fe	-0.16378781
3	0xbd9fcf97	-0.078032665
4	0xbe152646	-0.14565381
5	0xbf3468a6	-0.7047218
6	0xbe7f241b	-0.24916117
7	0x3eb900c6	0.36133403
8	0x3d798c38	0.06092474
9	0x3e874c36	0.26425332
10	0x3ef586d3	0.47954425
11	0xbdbfa01d	-0.09356711
12	0xbb9657b5	-0.004588092
13	0xbd8ede78	-0.06976026
14	0x3cbe581a	0.02323537
15	0x3f05ea58	0.52310705
16	0x3f1de998	0.6168456
17	0xbe65ab3b	-0.224286
18	0x3eb639de	0.35591024
19	0x3cb14a41	0.021641852

fc5.bias f4 [2]
0	0xbe2f1a91	-0.17099978
1	0x3edcb822	0.43109232
